…
on_steps` and `val_samples`->`steps` arguments have changed. Update your method calls accordingly.
  callbacks=[checkpointer])
cnn-model-BKVGG12-conti.py:100: UserWarning: Update your `fit_generator` call to the Keras 2 API: `fit_generator(<keras_pre..., validation_data=(array([[[..., steps_per_epoch=251, epochs=250, callbacks=[<keras.ca...)`
  callbacks=[checkpointer])
_________________________________________________________________
Layer (type)                 Output Shape              Param #   
=================================================================
conv2d_1 (Conv2D)            (None, 48, 48, 32)        320       
_________________________________________________________________
conv2d_2 (Conv2D)            (None, 48, 48, 32)        9248      
_________________________________________________________________
max_pooling2d_1 (MaxPooling2 (None, 24, 24, 32)        0         
_________________________________________________________________
conv2d_3 (Conv2D)            (None, 24, 24, 64)        18496     
_________________________________________________________________
conv2d_4 (Conv2D)            (None, 24, 24, 64)        36928     
_________________________________________________________________
max_pooling2d_2 (MaxPooling2 (None, 12, 12, 64)        0         
_________________________________________________________________
conv2d_5 (Conv2D)            (None, 12, 12, 128)       73856     
_________________________________________________________________
conv2d_6 (Conv2D)            (None, 12, 12, 128)       147584    
_________________________________________________________________
max_pooling2d_3 (MaxPooling2 (None, 6, 6, 128)         0         
_________________________________________________________________
conv2d_7 (Conv2D)            (None, 6, 6, 256)         295168    
_________________________________________________________________
conv2d_8 (Conv2D)            (None, 6, 6, 256)         590080    
_________________________________________________________________
conv2d_9 (Conv2D)            (None, 6, 6, 256)         590080    
_________________________________________________________________
flatten_1 (Flatten)          (None, 9216)              0         
_________________________________________________________________
dense_1 (Dense)              (None, 256)               2359552   
_________________________________________________________________
dropout_1 (Dropout)          (None, 256)               0         
_________________________________________________________________
dense_2 (Dense)              (None, 256)               65792     
_________________________________________________________________
dropout_2 (Dropout)          (None, 256)               0         
_________________________________________________________________
dense_3 (Dense)              (None, 7)                 1799      
_________________________________________________________________
activation_1 (Activation)    (None, 7)                 0         
=================================================================
Total params: 4,188,903
Trainable params: 4,188,903
Non-trainable params: 0
_________________________________________________________________
Epoch 1/250

  1/251 [..............................] - ETA: 14:09 - loss: 1.0424 - acc: 0.6016
  2/251 [..............................] - ETA: 12:14 - loss: 1.1045 - acc: 0.6055
  3/251 [..............................] - ETA: 11:34 - loss: 1.0468 - acc: 0.6198
…
